…
INFO:contrastive.utils.config: /neurospin/dico/babdelghani/Runs/02_champollion_v1/Output/2025-04-29/10-24-18_0
INFO:contrastive_learner_fusion.py: n_datasets 1
[1, 16, 37, 37]
==========================================================================================
Layer (type:depth-idx)                   Output Shape              Param #
==========================================================================================
├─ModuleList: 1                          []                        --
|    └─ConvNet: 2                        []                        --
|    |    └─Sequential: 3-1              [-1, 32]                  --
|    |    |    └─Conv3d: 4-1             [-1, 32, 16, 37, 37]      11,008
|    |    |    └─BatchNorm3d: 4-2        [-1, 32, 16, 37, 37]      64
|    |    |    └─LeakyReLU: 4-3          [-1, 32, 16, 37, 37]      --
|    |    |    └─Dropout3d: 4-4          [-1, 32, 16, 37, 37]      --
|    |    |    └─Conv3d: 4-5             [-1, 32, 16, 37, 37]      27,680
|    |    |    └─BatchNorm3d: 4-6        [-1, 32, 16, 37, 37]      64
|    |    |    └─LeakyReLU: 4-7          [-1, 32, 16, 37, 37]      --
|    |    |    └─Dropout3d: 4-8          [-1, 32, 16, 37, 37]      --
|    |    |    └─Conv3d: 4-9             [-1, 32, 16, 37, 37]      27,680
|    |    |    └─BatchNorm3d: 4-10       [-1, 32, 16, 37, 37]      64
|    |    |    └─LeakyReLU: 4-11         [-1, 32, 16, 37, 37]      --
|    |    |    └─Dropout3d: 4-12         [-1, 32, 16, 37, 37]      --
|    |    |    └─Conv3dSame: 4-13        [-1, 32, 8, 19, 19]       27,680
|    |    |    └─BatchNorm3d: 4-14       [-1, 32, 8, 19, 19]       64
|    |    |    └─LeakyReLU: 4-15         [-1, 32, 8, 19, 19]       --
|    |    |    └─Dropout3d: 4-16         [-1, 32, 8, 19, 19]       --
|    |    |    └─Conv3d: 4-17            [-1, 64, 8, 19, 19]       55,360
|    |    |    └─BatchNorm3d: 4-18       [-1, 64, 8, 19, 19]       128
|    |    |    └─LeakyReLU: 4-19         [-1, 64, 8, 19, 19]       --
|    |    |    └─Dropout3d: 4-20         [-1, 64, 8, 19, 19]       --
|    |    |    └─Conv3d: 4-21            [-1, 64, 8, 19, 19]       110,656
|    |    |    └─BatchNorm3d: 4-22       [-1, 64, 8, 19, 19]       128
|    |    |    └─LeakyReLU: 4-23         [-1, 64, 8, 19, 19]       --
|    |    |    └─Dropout3d: 4-24         [-1, 64, 8, 19, 19]       --
|    |    |    └─Conv3d: 4-25            [-1, 64, 8, 19, 19]       110,656
|    |    |    └─BatchNorm3d: 4-26       [-1, 64, 8, 19, 19]       128
|    |    |    └─LeakyReLU: 4-27         [-1, 64, 8, 19, 19]       --
|    |    |    └─Dropout3d: 4-28         [-1, 64, 8, 19, 19]       --
|    |    |    └─Conv3dSame: 4-29        [-1, 64, 4, 10, 10]       110,656
|    |    |    └─BatchNorm3d: 4-30       [-1, 64, 4, 10, 10]       128
|    |    |    └─LeakyReLU: 4-31         [-1, 64, 4, 10, 10]       --
|    |    |    └─Dropout3d: 4-32         [-1, 64, 4, 10, 10]       --
|    |    |    └─Conv3d: 4-33            [-1, 128, 4, 10, 10]      221,312
|    |    |    └─BatchNorm3d: 4-34       [-1, 128, 4, 10, 10]      256
|    |    |    └─LeakyReLU: 4-35         [-1, 128, 4, 10, 10]      --
|    |    |    └─Dropout3d: 4-36         [-1, 128, 4, 10, 10]      --
|    |    |    └─Conv3d: 4-37            [-1, 128, 4, 10, 10]      442,496
|    |    |    └─BatchNorm3d: 4-38       [-1, 128, 4, 10, 10]      256
|    |    |    └─LeakyReLU: 4-39         [-1, 128, 4, 10, 10]      --
|    |    |    └─Dropout3d: 4-40         [-1, 128, 4, 10, 10]      --
|    |    |    └─Conv3d: 4-41            [-1, 128, 4, 10, 10]      442,496
|    |    |    └─BatchNorm3d: 4-42       [-1, 128, 4, 10, 10]      256
|    |    |    └─LeakyReLU: 4-43         [-1, 128, 4, 10, 10]      --
|    |    |    └─Dropout3d: 4-44         [-1, 128, 4, 10, 10]      --
|    |    |    └─Conv3dSame: 4-45        [-1, 128, 2, 5, 5]        442,496
|    |    |    └─BatchNorm3d: 4-46       [-1, 128, 2, 5, 5]        256
|    |    |    └─LeakyReLU: 4-47         [-1, 128, 2, 5, 5]        --
|    |    |    └─Dropout3d: 4-48         [-1, 128, 2, 5, 5]        --
|    |    |    └─Flatten: 4-49           [-1, 6400]                --
|    |    |    └─Linear: 4-50            [-1, 32]                  204,832
├─ProjectionHead: 1                      []                        --
|    └─Sequential: 2-1                   [-1, 128]                 --
|    |    └─Linear: 3-2                  [-1, 128]                 4,224
|    |    └─LeakyReLU: 3-3               [-1, 128]                 --
|    |    └─Dropout: 3-4                 [-1, 128]                 --
|    |    └─Linear: 3-5                  [-1, 128]                 16,512
|    |    └─LeakyReLU: 3-6               [-1, 128]                 --
|    |    └─Dropout: 3-7                 [-1, 128]                 --
|    |    └─Linear: 3-8                  [-1, 128]                 16,512
==========================================================================================
Total params: 2,274,048
Trainable params: 2,274,048
Non-trainable params: 0
Total mult-adds (G): 2.84
==========================================================================================
Input size (MB): 0.08
Forward/backward pass size (MB): 44.79
Params size (MB): 8.67
Estimated Total Size (MB): 53.55
…
